experiments/1_pure_state_estimation/results/models/svise_damped_linear_oscillator_100permille_0128data_00_1757019745rs.pt (torch, 998668 bytes, 49 tensors)

marginal_sde.ident f8 [2, 2]
1.0 0.0 0.0 1.0
00000000: 0000 0000 0000 f03f 0000 0000 0000 0000
00000010: 0000 0000 0000 0000 0000 0000 0000 f03f

marginal_sde.diffusion_prior.Q f8 [2, 2]
0.0021797507591979717 0.0 0.0 0.0025485830258855408
00000000: 1589 2cc7 44db 613f 0000 0000 0000 0000
00000010: 0000 0000 0000 0000 c909 ea17 c4e0 643f

marginal_sde.diffusion_prior.Q_diag f8 [2]
0.0021797507591979717 0.0025485830258855408
00000000: 1589 2cc7 44db 613f c909 ea17 c4e0 643f

marginal_sde.diffusion_prior.pnoise f8 [2, 2]
0.0021797507591979717 0.0 0.0 0.0025485830258855408
00000000: 1589 2cc7 44db 613f 0000 0000 0000 0000
00000010: 0000 0000 0000 0000 c909 ea17 c4e0 643f

marginal_sde.diffusion_prior.zero f8 [1]
0.0
00000000: 0000 0000 0000 0000

marginal_sde.m.raw_w f8 [200, 2]
6.235725166015937 -0.5158145414204109 1.8550820269451378 -2.0893900065226143 0.23338105001453224 -2.202265172621998 -0.3393371174147539 -1.9448521113432242
-0.8420749831540304 -2.1588556244081363 -1.2996555495226585 -2.1491683230031913 -1.7186838079752413 -2.0605483424112956 -2.0655834984398735 -1.764768961472997
-2.3242510336821915 -1.230602894483886 -2.475406324461878 -0.3322411550513638 -2.498511724065041 0.8229825292915445 -2.269694821652521 1.0467961800370391
-1.9764263258100094 1.2816665529353721 -1.6569101572644662 1.8336301809973024 -1.1782144372458496 2.058517405773872 -0.7068011600009317 2.2998749085633254
-0.17324261684181547 2.3695134492292467 0.36129685801443984 2.322881746705394 0.8359205759383576 2.180691437262101 1.301178339686158 1.9283807835853104
1.6970084331937663 1.5758287295820366 1.9808986404554991 1.1665552064117164 2.1737098985066203 0.6839680548486157 2.2618629844213283 0.17666101213586155
2.2012085615547514 -0.30184053292175134 2.08659118628857 -0.8059252978695519 1.8429478576722844 -1.2313036540266424 1.5006875097303067 -1.5718822791823888
1.1080650923362052 -1.8720673790428615 0.6612170322832983 -2.046129512377536 0.2034855937196211 -2.1437050362314483 -0.2814413046062341 -2.0876665308763123
-0.7309161124842093 -1.9856139035125069 -1.13942091621284 -1.751717132486336 -1.4774037662598112 -1.4395662067785477 -1.7609605358365352 -1.0784403574899806
-1.9306844589413399 -0.6547071691579918 -1.9721425331037294 -0.19887267625973945 -2.003963527507177 0.21152287394240943 -1.8751958128425168 0.6477571182027398
-1.669020810987588 1.0473665434347292 -1.3957379577037778 1.3861375951141812 -1.0397737217399872 1.6199015652070428 -0.6490689207654197 1.7936117700631813
-0.2580505701532044 1.89121958585653 0.189536393975593 1.882482191308107 0.5779519631653457 1.7742310333097573 0.9339033404889564 1.586251551037455
1.2796542562094368 1.3355273117565107 1.499807326724777 1.0145025433159836 1.6712793152858534 0.6458239871371795 1.7599009606878757 0.24575170687826633
1.7507100306367422 -0.131751431827696 1.6698223314733591 -0.5081779628375307 1.5104102058883764 -0.8541435629403774 1.2604950756742446 -1.148443997007811
0.9747946012524061 -1.3797788929842822 0.648817440367531 -1.5551925008732868 0.27591132554515607 -1.650306687820366 -0.08700164785283866 -1.6500171534632604
-0.45015265987579267 -1.577037230118874 -0.7784701686116933 -1.4264583569401712 -1.0562996071429729 -1.2154465963227017 -1.2864882861291171 -0.9433618753005761
-1.447943986110409 -0.6228626669555027 -1.5506757417611228 -0.3050968781104064 -1.5633655477409414 0.0568191285799225 -1.4862990172991173 0.4050742592289254
-1.346372224830661 0.7049269667107514 -1.1428400174010405 0.9617379940876241 -0.89645278046245 1.1682353313284655 -0.639426552938683 1.336398010398402
-0.3155004783489275 1.4339441653651936 0.008202800754763174 1.457182064744813 0.36017849280478104 1.3837588687719795 0.5974066099608096 1.2794977681192337
0.8725654164261506 1.0977207500015187 1.0853167798058005 0.8683325602300678 1.2379914446357698 0.5864279342931179 1.3140151317398472 0.322438794535598
1.3282963938117298 0.03357016979754376 1.315579488724831 -0.28770590628609893 1.1846991155831776 -0.5352332405704087 1.0447887578616142 -0.771892251094482
0.8519451113668164 -0.9844731672662218 0.5648178243563997 -1.1318184541799023 0.3270029893819527 -1.227187926234954 0.062303449833746465 -1.2543646468599237
-0.23264360148674174 -1.217369998686643 -0.4738861008502074 -1.1358795595197728 -0.7035331135702111 -0.9867877042637933 -0.9258048324838432 -0.800181381808365
-1.0323183609559543 -0.5818136621608992 -1.1344209614102787 -0.33535466880952586 -1.1674180065144302 -0.0758363814352304 -1.1318592282271298 0.17259201108834962
-1.0751528988026078 0.4154528452182972 -0.9718251907969145 0.6374497468106795 -0.7513577654731556 0.8061417373367978 -0.5796254634289663 0.9486086817090336
-0.34775983780333414 1.0412198687419467 -0.11941667560561005 1.0885453019805558 0.12633491756194715 1.0637290378892923 0.34732252625359683 1.0172170845849065
0.5394594826795489 0.9172250625615739 0.7463977786531683 0.7561576866564093 0.8768088342023858 0.5676157641543491 0.9722787780853064 0.3510304877806497
1.0172113586083875 0.13126359374428567 1.0093306750222932 -0.09229733840625465 0.9607370139305464 -0.309342464516215 0.8531678263079296 -0.5067800483068329
0.7125944856400763 -0.6929308087259445 0.5410887728729906 -0.8253327915938168 0.34071103095923405 -0.9041010316221569 0.12564882311221423 -0.9561054733607383
-0.0855944350948542 -0.9436724752009816 -0.2929681879934789 -0.8955498920133388 -0.483986509558185 -0.8113924826226568 -0.6344347033796007 -0.6566364491787594
-0.7459260886967426 -0.4954503331112633 -0.8606269234964558 -0.3428367784821451 -0.8591549997290527 -0.13324859764298388 -0.8753405507968784 0.05572231250191643
-0.8442192802851004 0.25082881414081754 -0.7575768739580548 0.44038002488302275 -0.6284682276049652 0.5658099078311343 -0.4840392294745542 0.6610915257629757
00000000: ce87 1bf0 61f1 1840 fc75 467f 8d81 e0bf
00000010: 3307 d27d 6aae fd3f b2d4 941b 12b7 00c0
00000020: 74c6 a824 6edf cd3f 0e40 ec33 3d9e 01c0
00000030: c060 6707 b3b7 d5bf 4369 5c3f 1d1e ffbf
00000040: 58a4 2d3c 47f2 eabf e7f2 fc18 5645 01c0
00000050: 523c 149e 63cb f4bf d72e 6729 7f31 01c0
00000060: cab1 b697 ba7f fbbf 42de f3c4 007c 00c0
00000070: f6a6 27a4 5086 00c0 c75b e860 7e3c fcbf
00000080: a8df 0aed 1098 02c0 5bbd 22a9 8cb0 f3bf
00000090: ad00 bfd4 a1cd 03c0 052d d567 7043 d5bf
000000a0: 6341 fcb6 f3fc 03c0 c891 0f75 df55 ea3f
000000b0: 5f2f 37c2 5528 02c0 9463 ed59 adbf f03f
000000c0: 3deb 0436 719f ffbf 6ac0 93c9 b481 f43f
000000d0: 10c7 9d39 b482 fabf ba78 c599 8c56 fd3f
000000e0: e355 ba61 f7d9 f2bf 455d 40f9 d777 0040
000000f0: dd52 5f77 1d9e e6bf 215d e9d0 2466 0240
00000100: 8ef5 cd66 d02c c6bf 63f9 9e77 c3f4 0240
00000110: e973 54db 7c1f d73f a699 7406 4395 0240
00000120: ebad f681 dcbf ea3f e7a9 2d5a 0e72 0140
00000130: 3673 f360 a0d1 f43f 7dbd fbce a5da fe3f
00000140: a3a7 9950 f226 fb3f e66e 9a2f 9836 f93f
00000150: dc27 d7c5 c2b1 ff3f 0645 c8ca 35aa f23f
00000160: 8b9e e803 c263 0140 59ac 62f9 10e3 e53f
00000170: 02fb d09e 4b18 0240 4607 cdfa d39c c63f
00000180: 426c fc3b 139c 0140 7d64 60f4 5a51 d3bf
00000190: 9bd9 49b8 56b1 0040 14cd abd9 23ca e9bf
000001a0: baf8 8ee4 b67c fd3f edd5 d775 6bb3 f3bf
000001b0: e7ea fce7 d002 f83f 3c01 6408 6e26 f9bf
000001c0: 84c5 5676 a2ba f13f 445c 8eec fcf3 fdbf
000001d0: cfe0 269f b028 e53f e755 5826 795e 00c0
000001e0: 2ed0 1de1 d00b ca3f 9713 77d3 4e26 01c0
000001f0: 19c0 c163 2203 d2bf 508a 9882 8ab3 00c0
00000200: 01a7 e72f aa63 e7bf 1a1b a115 13c5 ffbf
00000210: 3733 386d 113b f2bf 89f2 3d8b 0807 fcbf
00000220: 7d2b b121 72a3 f7bf 72a6 2893 7608 f7bf
00000230: d16e 6ff4 e42c fcbf 3db2 21ad 4a41 f1bf
00000240: b2c6 2063 15e4 febf a8b0 ff72 5cf3 e4bf
00000250: a6b2 2b54 e58d ffbf ff41 4dec a874 c9bf
00000260: 3629 a807 1e08 00c0 5c23 f878 2e13 cb3f
00000270: 7113 1c53 cd00 febf bbd2 cd22 6dba e43f
00000280: b88f 782a 4fb4 fabf aba0 af6b 03c2 f03f
00000290: 17fa 2153 f154 f6bf 0e58 6c9d 9e2d f63f
000002a0: b0d0 21c5 e9a2 f0bf f9da 54e7 1deb f93f
000002b0: 2433 712f 2cc5 e4bf c745 6241 a2b2 fc3f
000002c0: 2d6b e189 e683 d0bf 74ef ec77 6f42 fe3f
000002d0: e172 c382 ba42 c83f 2188 6fa5 a51e fe3f
000002e0: 7388 8e1d 957e e23f b1d1 7914 4063 fc3f
000002f0: 9bce 2042 89e2 ed3f 5af6 6e4e 4961 f93f
00000300: 31b5 c9bd 7679 f43f 4e8b eee2 515e f53f
00000310: 7d58 a9f7 35ff f73f fc03 d404 673b f03f
00000320: eb24 1a61 8fbd fa3f 933f f710 97aa e43f
00000330: 8fa7 e5e8 8d28 fc3f fd39 fdbb ca74 cf3f
00000340: ced2 6585 e802 fc3f 2858 731d 3bdd c0bf
00000350: d1ef fc9e 97b7 fa3f 52ec 5d6e fe42 e0bf
00000360: fe5c 5de4 a32a f83f ef5e 9de1 2455 ebbf
00000370: 89a3 6ce2 fc2a f43f 25fa 06d0 0660 f2bf
00000380: 4749 9672 8431 ef3f d941 5108 9313 f6bf
00000390: c77e eeca 1cc3 e43f 74c3 2388 11e2 f8bf
000003a0: 42ff f3f9 87a8 d13f d6ef 48fc a767 fabf
000003b0: 75de 3970 bd45 b6bf 626b ff62 7866 fabf
000003c0: a6ee 171a 4dcf dcbf b8f5 fe63 8b3b f9bf
000003d0: 9a29 6345 3ae9 e8bf 759f 82ff c5d2 f6bf
000003e0: b64e b76a 9ae6 f0bf 29d9 5321 7872 f3bf
000003f0: 50c9 b9bd 7495 f4bf ceb1 563e 0530 eebf
00000400: 9d8b 2c50 c72a f7bf a724 0fb0 7dee e3bf
00000410: 7408 d95d 91cf f8bf 2023 660e b586 d3bf
00000420: f7d8 b397 8b03 f9bf e972 1396 6517 ad3f
00000430: bf06 767a e1c7 f7bf 01bd f595 bcec d93f
00000440: 473f 1e9a bd8a f5bf c4ea 82ff c28e e63f
00000450: b9c2 349d 1249 f2bf e0a9 fdc1 8ec6 ee3f
00000460: ded2 cfbd bdaf ecbf 5566 e187 17b1 f23f
00000470: db19 a2ac 2e76 e4bf 139c 51e1 e261 f53f
00000480: 4d62 18eb 2831 d4bf 4f89 e86f 6ff1 f63f
00000490: ed88 d147 a1cc 803f fe58 0624 9e50 f73f
000004a0: 3b6c d417 2a0d d73f 4acf ee56 e023 f63f
000004b0: db44 8677 f41d e33f 9a08 d6a6 d278 f43f
000004c0: 5378 e54e 0eec eb3f 955a 16a2 4390 f13f
000004d0: 1e0e b120 755d f13f d4ae 875d 61c9 eb3f
000004e0: cb03 f71d d0ce f33f 2ffe e783 04c4 e23f
000004f0: 3159 14bb 3406 f53f dc7d 5f53 d6a2 d43f
00000500: d00e 2db8 b340 f53f cba0 cdfa 1b30 a13f
00000510: e9c8 f513 9d0c f53f 7859 9708 c669 d2bf
00000520: 5b7a 500f 87f4 f23f 976c ff75 a120 e1bf
00000530: d1e7 a36a 74b7 f03f 6592 cf60 57b3 e8bf
00000540: 7cd7 e964 2243 eb3f b155 26df cd80 efbf
00000550: 20e0 79d4 fc12 e23f 2b64 dbaa ed1b f2bf
00000560: 02be 45f2 9ded d43f 5f9a 93ce 8fa2 f3bf
00000570: 9f86 edde 3ce6 af3f f459 f8a9 e011 f4bf
00000580: e22d 01fa 43c7 cdbf e3d9 b7f6 587a f3bf
00000590: ed8e 4b5e 2654 debf 2451 850b 902c f2bf
000005a0: cffc 4de0 5783 e6bf 9d0d bdce c393 efbf
000005b0: 51e6 bf74 31a0 edbf 4285 37fc 159b e9bf
000005c0: bddb f541 6084 f0bf 131b 6baf 379e e2bf
000005d0: e376 1298 9626 f2bf c342 c66d 7376 d5bf
000005e0: 1bdb eb80 bead f2bf e77d 1c5a 036a b3bf
000005f0: c794 0e6c 181c f2bf 3f71 96b9 7e17 c63f
00000600: a5e8 a886 d333 f1bf fe88 cf87 c796 da3f
00000610: cbda 7c24 3119 efbf b2a6 ec02 fd65 e43f
00000620: e0b0 c970 1f0b e8bf 5eab b9c1 e9cb e93f
00000630: 6f66 2bb3 4a8c e2bf 0a8b 1498 005b ee3f
00000640: bf90 8e7a b241 d6bf bc12 432a d6a8 f03f
00000650: 0db9 525c 1792 bebf ef88 837a ae6a f13f
00000660: dcbd a219 be2b c03f 11a4 58bd 0805 f13f
00000670: 5817 db42 883a d63f 1f98 f36b 8546 f03f
00000680: 1206 7488 4043 e13f a0c0 d85f e859 ed3f
00000690: bdea 2398 7de2 e73f 8add d99a 7132 e83f
000006a0: bfc7 7766 d10e ec3f 5495 f788 e829 e23f
000006b0: 5614 4f62 e81c ef3f 26ad 3a94 4877 d63f
000006c0: ea7b e56a 7f46 f03f e9c0 24d5 3ecd c03f
000006d0: 2b20 01ec 3726 f03f 1074 f661 cca0 b7bf
000006e0: b86d dc8c 5bbe ee3f a31d 1756 44cc d3bf
000006f0: 30be ff9c 264d eb3f ddc7 b7ca 8a37 e0bf
00000700: 4c4a 64f3 92cd e63f e8cc 3b3b 7d2c e6bf
00000710: cf1c f766 9950 e13f 49c7 8650 2069 eabf
00000720: 80ce d6a3 35ce d53f d61a 6349 65ee ecbf
00000730: eb1f 06b9 4215 c03f 118d 7381 6a98 eebf
00000740: d8b5 7353 84e9 b5bf 6df4 639e 9032 eebf
00000750: e4d2 8ca4 fdbf d2bf a146 443f 58a8 ecbf
00000760: 747c 908d a2f9 debf b6b4 225e edf6 e9bf
00000770: a2cf ce01 4a4d e4bf e5b2 5271 2a03 e5bf
00000780: 4bf1 8563 a0de e7bf e654 6050 75b5 dfbf
00000790: 0d2e 4f79 418a ebbf 8898 dcab 09f1 d5bf
000007a0: 59ff 40a0 327e ebbf 3ba7 8e40 4a0e c1bf
000007b0: 8520 d12f ca02 ecbf a5d9 b48b a287 ac3f
000007c0: ed44 ef26 d803 ebbf 0546 684c 940d d03f
000007d0: 6262 3bdb 113e e8bf bcca 2bb3 2f2f dc3f
000007e0: db6d 8466 691c e4bf 5e66 3c61 1d1b e23f
000007f0: 81c0 24ad 7ffa debf 3412 5a6a a927 e53f

marginal_sde.m.b f8 [2]
0.01290335043402674 -0.008942256922215562
00000000: e1d8 fb60 126d 8a3f 9f4a 4468 5150 82bf

marginal_sde.m.tau f8 [200, 1]
-1.0 -0.8894472361809045 -0.778894472361809 -0.6683417085427136 -0.5577889447236181 -0.44723618090452255 -0.3366834170854271 -0.2261306532663316
-0.11557788944723613 -0.005025125628140642 0.10552763819095484 0.21608040201005033 0.3266331658291458 0.4371859296482413 0.5477386934673367 0.6582914572864322
0.7688442211055277 0.8793969849246233 0.9899497487437188 1.1005025125628143 1.2110552763819098 1.321608040201005 1.4321608040201006 1.542713567839196
1.6532663316582916 1.7638190954773871 1.8743718592964826 1.9849246231155782 2.0954773869346734 2.206030150753769 2.3165829145728645 2.42713567839196
2.5376884422110555 2.648241206030151 2.7587939698492465 2.869346733668342 2.9798994974874375 3.090452261306533 3.2010050251256286 3.311557788944724
3.4221105527638196 3.532663316582915 3.64321608040201 3.753768844221106 3.864321608040201 3.974874371859297 4.085427135678392 4.1959798994974875
4.306532663316583 4.417085427135679 4.527638190954774 4.63819095477387 4.748743718592965 4.859296482412061 4.969849246231156 5.080402010050252
5.190954773869347 5.301507537688442 5.412060301507538 5.522613065326634 5.633165829145729 5.743718592964824 5.85427135678392 5.964824120603016
6.075376884422111 6.185929648241206 6.296482412060302 6.407035175879398 6.517587939698493 6.628140703517588 6.738693467336684 6.84924623115578
6.959798994974875 7.07035175879397 7.180904522613066 7.291457286432161 7.402010050251257 7.512562814070352 7.623115577889448 7.733668341708543
7.844221105527639 7.9547738693467345 8.06532663316583 8.175879396984925 8.28643216080402 8.396984924623116 8.507537688442211 8.618090452261308
8.728643216080403 8.839195979899499 8.949748743718594 9.06030150753769 9.170854271356784 9.28140703517588 9.391959798994975 9.50251256281407
9.613065326633166 9.723618090452263 9.834170854271358 9.944723618090453 10.055276381909547 10.165829145728642 10.276381909547737 10.386934673366834
10.49748743718593 10.608040201005025 10.71859296482412 10.829145728643216 10.93969849246231 11.050251256281406 11.160804020100501 11.271356783919597
11.381909547738692 11.492462311557789 11.603015075376884 11.71356783919598 11.824120603015075 11.93467336683417 12.045226130653266 12.15577889447236
12.266331658291456 12.376884422110551 12.487437185929648 12.597989949748744 12.708542713567839 12.819095477386934 12.92964824120603 13.040201005025125
13.15075376884422 13.261306532663315 13.37185929648241 13.482412060301508 13.592964824120603 13.703517587939698 13.814070351758794 13.924623115577889
14.035175879396984 14.14572864321608 14.256281407035175 14.36683417085427 14.477386934673367 14.587939698492463 14.698492462311558 14.809045226130653
14.919597989949748 15.030150753768844 15.140703517587939 15.251256281407034 15.36180904522613 15.472361809045227 15.582914572864322 15.693467336683417
15.804020100502512 15.914572864321608 16.025125628140703 16.1356783919598 16.246231155778894 16.35678391959799 16.467336683417084 16.57788944723618
16.688442211055275 16.798994974874372 16.909547738693465 17.020100502512562 17.13065326633166 17.241206030150753 17.35175879396985 17.462311557788944
17.57286432160804 17.683417085427134 17.79396984924623 17.904522613065325 18.015075376884422 18.12562814070352 18.236180904522612 18.34673366834171
18.457286432160803 18.5678391959799 18.678391959798994 18.78894472361809 18.899497487437184 19.01005025125628 19.12060301507538 19.231155778894472
19.34170854271357 19.452261306532662 19.56281407035176 19.673366834170853 19.78391959798995 19.894472361809044 20.00502512562814 20.115577889447238
20.22613065326633 20.33668341708543 20.44723618090452 20.55778894472362 20.668341708542712 20.77889447236181 20.889447236180903 21.0
00000000: 0000 0000 0000 f0bf 2e44 dd0c 5a76 ecbf
00000010: 5c88 ba19 b4ec e8bf 8bcc 9726 0e63 e5bf
00000020: b910 7533 68d9 e1bf cea9 a480 849f dcbf
00000030: 2b32 5f9a 388c d5bf 0f75 3368 d9f1 ccbf
00000040: 900b 5137 8396 bdbf 20d0 b2e3 3995 74bf
00000050: 8cb1 dafa db03 bb3f 0d48 f8c9 85a8 cb3f
00000060: aa9b 41cb 8ee7 d43f 4e13 87b1 dafa db3f
00000070: 7845 e64b 1387 e13f 4a01 093f b910 e53f
00000080: 1cbd 2b32 5f9a e83f ee78 4e25 0524 ec3f
00000090: c034 7118 abad ef3f 49f8 c985 a89b f13f
000000a0: 3256 5b7f 7b60 f33f 1ab4 ec78 4e25 f53f
000000b0: 0312 7e72 21ea f63f ec6f 0f6c f4ae f83f
000000c0: d5cd a065 c773 fa3f be2b 325f 9a38 fc3f
000000d0: a789 c358 6dfd fd3f 90e7 5452 40c2 ff3f
000000e0: bc22 f3a5 89c3 0040 b1d1 bb22 f3a5 0140
000000f0: a580 849f 5c88 0240 9a2f 4d1c c66a 0340
00000100: 8ede 1599 2f4d 0440 828d de15 992f 0540
00000110: 773c a792 0212 0640 6beb 6f0f 6cf4 0640
00000120: 609a 388c d5d6 0740 5449 0109 3fb9 0840
00000130: 49f8 c985 a89b 0940 3da7 9202 127e 0a40
00000140: 3256 5b7f 7b60 0b40 2605 24fc e442 0c40
00000150: 1ab4 ec78 4e25 0d40 0f63 b5f5 b707 0e40
00000160: 0312 7e72 21ea 0e40 f8c0 46ef 8acc 0f40
00000170: f6b7 0736 7a57 1040 700f 6cf4 aec8 1040
00000180: ea66 d0b2 e339 1140 65be 3471 18ab 1140
00000190: df15 992f 4d1c 1240 596d fded 818d 1240
000001a0: d3c4 61ac b6fe 1240 4e1c c66a eb6f 1340
000001b0: c873 2a29 20e1 1340 42cb 8ee7 5452 1440
000001c0: bc22 f3a5 89c3 1440 367a 5764 be34 1540
000001d0: b1d1 bb22 f3a5 1540 2b29 20e1 2717 1640
000001e0: a580 849f 5c88 1640 1fd8 e85d 91f9 1640
000001f0: 9a2f 4d1c c66a 1740 1487 b1da fadb 1740
00000200: 8ede 1599 2f4d 1840 0836 7a57 64be 1840
00000210: 828d de15 992f 1940 fde4 42d4 cda0 1940
00000220: 773c a792 0212 1a40 f193 0b51 3783 1a40
00000230: 6beb 6f0f 6cf4 1a40 e642 d4cd a065 1b40
00000240: 609a 388c d5d6 1b40 daf1 9c4a 0a48 1c40
00000250: 5449 0109 3fb9 1c40 cea0 65c7 732a 1d40
00000260: 49f8 c985 a89b 1d40 c34f 2e44 dd0c 1e40
00000270: 3da7 9202 127e 1e40 b7fe f6c0 46ef 1e40
00000280: 3256 5b7f 7b60 1f40 acad bf3d b0d1 1f40
00000290: 9302 127e 7221 2040 502e 44dd 0c5a 2040
000002a0: 0d5a 763c a792 2040 ca85 a89b 41cb 2040
000002b0: 87b1 dafa db03 2140 45dd 0c5a 763c 2140
000002c0: 0209 3fb9 1075 2140 bf34 7118 abad 2140
000002d0: 7c60 a377 45e6 2140 398c d5d6 df1e 2240
000002e0: f6b7 0736 7a57 2240 b3e3 3995 1490 2240
000002f0: 700f 6cf4 aec8 2240 2d3b 9e53 4901 2340
00000300: ea66 d0b2 e339 2340 a892 0212 7e72 2340
00000310: 65be 3471 18ab 2340 22ea 66d0 b2e3 2340
00000320: de15 992f 4d1c 2440 9b41 cb8e e754 2440
00000330: 586d fded 818d 2440 1699 2f4d 1cc6 2440
00000340: d3c4 61ac b6fe 2440 90f0 930b 5137 2540
00000350: 4d1c c66a eb6f 2540 0a48 f8c9 85a8 2540
00000360: c773 2a29 20e1 2540 849f 5c88 ba19 2640
00000370: 41cb 8ee7 5452 2640 fef6 c046 ef8a 2640
00000380: bb22 f3a5 89c3 2640 794e 2505 24fc 2640
00000390: 367a 5764 be34 2740 f3a5 89c3 586d 2740
000003a0: b0d1 bb22 f3a5 2740 6dfd ed81 8dde 2740
000003b0: 2a29 20e1 2717 2840 e754 5240 c24f 2840
000003c0: a480 849f 5c88 2840 61ac b6fe f6c0 2840
000003d0: 1fd8 e85d 91f9 2840 dc03 1bbd 2b32 2940
000003e0: 992f 4d1c c66a 2940 565b 7f7b 60a3 2940
000003f0: 1387 b1da fadb 2940 d0b2 e339 9514 2a40
00000400: 8dde 1599 2f4d 2a40 4a0a 48f8 c985 2a40
00000410: 0736 7a57 64be 2a40 c561 acb6 fef6 2a40
00000420: 828d de15 992f 2b40 3fb9 1075 3368 2b40
00000430: fce4 42d4 cda0 2b40 b910 7533 68d9 2b40
00000440: 763c a792 0212 2c40 3368 d9f1 9c4a 2c40
00000450: f093 0b51 3783 2c40 adbf 3db0 d1bb 2c40
00000460: 6beb 6f0f 6cf4 2c40 2817 a26e 062d 2d40
00000470: e542 d4cd a065 2d40 a26e 062d 3b9e 2d40
00000480: 5f9a 388c d5d6 2d40 1cc6 6aeb 6f0f 2e40
00000490: d9f1 9c4a 0a48 2e40 961d cfa9 a480 2e40
000004a0: 5349 0109 3fb9 2e40 1175 3368 d9f1 2e40
000004b0: cea0 65c7 732a 2f40 8bcc 9726 0e63 2f40
000004c0: 48f8 c985 a89b 2f40 0524 fce4 42d4 2f40
000004d0: e127 17a2 6e06 3040 c03d b0d1 bb22 3040
000004e0: 9e53 4901 093f 3040 7d69 e230 565b 3040
000004f0: 5b7f 7b60 a377 3040 3a95 1490 f093 3040
00000500: 18ab adbf 3db0 3040 f7c0 46ef 8acc 3040
00000510: d5d6 df1e d8e8 3040 b4ec 784e 2505 3140
00000520: 9302 127e 7221 3140 7118 abad bf3d 3140
00000530: 502e 44dd 0c5a 3140 2e44 dd0c 5a76 3140
00000540: 0d5a 763c a792 3140 eb6f 0f6c f4ae 3140
00000550: ca85 a89b 41cb 3140 a89b 41cb 8ee7 3140
00000560: 87b1 dafa db03 3240 66c7 732a 2920 3240
00000570: 44dd 0c5a 763c 3240 23f3 a589 c358 3240
00000580: 0109 3fb9 1075 3240 e01e d8e8 5d91 3240
00000590: be34 7118 abad 3240 9d4a 0a48 f8c9 3240
000005a0: 7b60 a377 45e6 3240 5a76 3ca7 9202 3340
000005b0: 398c d5d6 df1e 3340 17a2 6e06 2d3b 3340
000005c0: f6b7 0736 7a57 3340 d4cd a065 c773 3340
000005d0: b3e3 3995 1490 3340 91f9 d2c4 61ac 3340
000005e0: 700f 6cf4 aec8 3340 4e25 0524 fce4 3340
000005f0: 2d3b 9e53 4901 3440 0c51 3783 961d 3440
00000600: ea66 d0b2 e339 3440 c97c 69e2 3056 3440
00000610: a792 0212 7e72 3440 86a8 9b41 cb8e 3440
00000620: 64be 3471 18ab 3440 43d4 cda0 65c7 3440
00000630: 21ea 66d0 b2e3 3440 0000 0000 0000 3540

marginal_sde.m.eps f8 []
1e-06
00000000: 8ded b5a0 f7c6 b03e

marginal_sde.m.K.rawlen f8 [1]
0.526723027751267
00000000: c3bc 4740 eada e03f

marginal_sde.m.K.rawsigf f8 [1]
0.5154232058445424
00000000: 0775 96ce 587e e03f

marginal_sde.m.K.input_warping.rawalpha f8 [1]
0.4333248698381263
00000000: a9e2 1f3c 98bb db3f

marginal_sde.m.K.input_warping.rawbeta f8 [1]
0.4959726708202934
00000000: fc81 3828 04be df3f

marginal_sde.m.K.input_warping.t0 f8 []
-1.000001
00000000: 0b7a 6f0c 0100 f0bf

marginal_sde.m.K.input_warping.tf f8 []
21.000001
00000000: a1f7 c610 0000 3540

marginal_sde.m.K.input_warping.eps f8 []
1e-06
00000000: 8ded b5a0 f7c6 b03e

marginal_sde.orthogonal.raw_w f8 [200, 1]
-4.113265353180579 -0.575112497056088 -15.148903932179515 -3.3701451552590918 -11.103364589198778 -1.9665882648101378 -4.000449717657555 -4.451849258443041
-3.7331510493171884 -3.863941493828538 -4.3740301351548565 -3.9042493151637148 -2.4941201858161244 -3.671971467478663 -2.8824830376491155 -2.681453726140114
-3.634531497979937 -3.551697267604723 -5.296063263617545 -3.930610777515789 -3.798110103597515 -3.282501285343904 -1.2899997938105954 -3.796466031090261
-5.827585402176533 -4.543823534792343 -3.199810917499984 -4.519707154366796 -3.019690407310216 -3.6718615807821577 -3.1010150666276775 -4.401700900275672
-3.637020541243785 -3.839509653289456 -3.8939284392701214 -2.414422667587548 -3.765351056245926 -2.965346705722132 -2.12010953559489 -2.797072530046933
-2.772673763008717 -2.5438296046606115 -2.117530791848202 -1.843901379780938 -1.357664606363804 -0.9911670948897165 -1.4712758431994766 -0.27901934234427983
-1.794898852096997 -1.823911744579815 -1.4809319233771998 0.5437252092768536 -2.2829622180884748 -2.0855323084131037 -0.8486283357851825 -1.379593340246754
-1.0010506212431283 -0.0033584216782580893 -2.0154082980195693 -1.2940302175082905 0.6550825395900461 -2.215641836351468 1.4312486156926167 0.5441043689622563
1.1556070180488205 0.07074242388077666 1.3125893367613044 1.3996946103836654 1.6372519903670655 -0.5795831072447981 1.4504784541271996 0.6506968737570211
2.3066284348186064 1.927562458395744 2.6583293638878787 1.9626745765435554 3.476952247625351 4.274883707744449 4.847727195037851 2.6069019131380875
4.462041612302128 4.513575685794733 4.516926070749176 1.3566999116445233 3.867484729756644 5.5676272569291365 6.333781857317685 5.91593685997062
5.770699558979465 6.5690269640504795 7.40048485487854 5.031689174625882 7.509398754434892 5.264862853405227 5.742423661450427 5.40142378389615
5.769911021903492 6.121912463717302 6.513890724194471 6.410146341274763 7.226877442093372 8.510463967979888 7.494895000871797 8.60204073569539
8.003342152708248 7.5862057498918505 8.715396710397613 8.169010573625213 8.944941826242388 8.043134567940248 8.427901097611128 8.065873601512017
7.2330960976398995 7.325111582361951 6.863550999772118 7.002490955615082 5.977044487018149 7.407482754145044 6.453993100968652 7.736277906108028
7.141264174150363 7.144562439156906 8.182560025316612 7.734207233771967 6.2477833001087655 5.374343895616602 6.121779246848257 7.244778211844921
6.015181582028992 5.361205237668275 4.068578656587129 2.996832187504876 3.103344573563818 1.6790155245312028 3.6785109099458837 2.8403172007551514
1.7319427491356791 3.1973431415314026 0.08245597293133863 0.5079767478903646 -0.190343031566559 0.5477829386692412 -0.8278508234013281 -1.095307756013104
-2.3086456524790298 -1.4409378406620914 -2.1396254501652354 -3.8073811404093543 -1.961951993452612 -2.9981938539705344 -3.575161017038816 -1.857442791639701
-3.6856494842738052 -3.2145238126987223 -6.315810354512713 -5.136553560078071 -5.73577560882559 -4.677866171644093 -5.6197926802567775 -5.48951566342734
-5.687184658469464 -6.741014959723905 -5.630762214974383 -6.58223796863592 -6.480972033456778 -4.3638508763655475 -7.466821564777759 -6.159695152836203
-5.37883697653538 -7.4923369970738385 -4.14750418560037 -4.951803386639916 -7.068021034106875 -4.331456897458882 -6.551899550401578 -6.473647074220828
-4.571451152882648 -5.864321643458468 -6.594304338637909 -5.811770686734766 -3.1990857926152207 -5.155841557361412 -3.739889980518355 -5.44729776773414
-4.478603054893743 -4.535425403634196 -6.855326992446761 -5.806807738724353 -6.5008976609871985 -9.28861426289323 -2.097743039533844 10.945717086665994
14.419483556494702 16.348667001759928 19.30231679137777 14.980883903159459 14.46583475041664 10.034372037963188 6.984300526811676 -19.070826199734274
00000000: cfb8 2ed5 fb73 10c0 b30e cc52 5267 e2bf
00000010: e4e9 dd22 3d4c 2ec0 98e2 c4a9 0ef6 0ac0
00000020: b158 1434 ec34 26c0 2fe9 a041 2577 ffbf
00000030: cb86 0ae4 7500 10c0 59f0 6e92 b1ce 11c0
00000040: 65c3 1e4c 7edd 0dc0 2935 6d28 5ae9 0ec0
00000050: 93d5 78c1 017f 11c0 ea77 a010 e73b 0fc0
00000060: 55fd b248 f5f3 03c0 f053 a593 3260 0dc0
00000070: 4ed2 4f44 530f 07c0 b312 dc02 9e73 05c0
00000080: 83d8 0040 8513 0dc0 203d cd41 e069 0cc0
00000090: 3523 4b35 2b2f 15c0 31e2 3510 e471 0fc0
000000a0: ce77 cc8c 8762 0ec0 4e0a ad08 9042 0ac0
000000b0: 4636 e4d2 d6a3 f4bf bf42 1f95 295f 0ec0
000000c0: 1afb 338c 724f 17c0 b5e9 a213 e02c 12c0
000000d0: 965e 6077 3699 09c0 ad02 be1c 2e14 12c0
000000e0: d389 bb71 5328 08c0 932f e7f6 f85f 0dc0
000000f0: 978d bcfc e0ce 08c0 c1d4 157b 579b 11c0
00000100: 9f2d bc39 9e18 0dc0 a46f 4cd6 50b7 0ec0
00000110: 3409 1df4 c326 0fc0 a813 e0d4 bc50 03c0
00000120: 5048 e45f 701f 0ec0 ed05 93b1 07b9 07c0
00000130: db8a fafc fbf5 00c0 81bb 0890 6760 06c0
00000140: 2ccc f494 6f2e 06c0 57e9 f455 c359 04c0
00000150: 8d16 dafb b3f0 00c0 a055 b3bb 9e80 fdbf
00000160: db4e b485 feb8 f5bf 7186 2d0e a4b7 efbf
00000170: 37fc de89 588a f7bf ae7c 94f1 73db d1bf
00000180: 1727 d6db e7b7 fcbf 762b dc14 be2e fdbf
00000190: 851e 28ac e5b1 f7bf de5a fb68 3266 e13f
000001a0: 888c 05b2 8143 02c0 d815 1b90 2baf 00c0
000001b0: 2000 959c f627 ebbf 333a 6277 d012 f6bf
000001c0: 5413 fea7 4d04 f0bf 4108 c7e8 1e83 6bbf
000001d0: 09a6 c062 8e1f 00c0 f3bd 8307 59b4 f4bf
000001e0: 3409 77a8 6ff6 e43f 443b 566d a2b9 01c0
000001f0: 5f85 cdf2 64e6 f63f 29b7 c990 4d69 e13f
00000200: a6c3 d8c8 5d7d f23f f7f8 01ed 2c1c b23f
00000210: 797d 27ad 5d00 f53f cfc3 ff2c 2665 f63f
00000220: cfff 9e24 2f32 fa3f 66c6 5ddf f18b e2bf
00000230: 9d76 40e5 2835 f73f c6aa 0c40 82d2 e43f
00000240: 818e dc9b f973 0240 cee9 7cbb 4bd7 fe3f
00000250: cd28 7f2f 4244 0540 9e1f ef74 1d67 ff3f
00000260: c66f 0a57 ccd0 0b40 cedc 5b1d 7b19 1140
00000270: 3378 0a99 1264 1340 9e76 e663 efda 0440
00000280: 3eea b86f 21d9 1140 5f09 dac8 e60d 1240
00000290: 1d45 6111 5511 1240 34fd 6ff7 0ab5 f53f
000002a0: 69ac 80d5 9bf0 0e40 b950 6314 4045 1640
000002b0: dcb5 44e9 ca55 1940 5719 2b5a eba9 1740
000002c0: 076f e343 3215 1740 508e 2401 af46 1a40
000002d0: 8efc a8b3 189a 1d40 209f 8220 7320 1440
000002e0: 1aaf bbd3 9f09 1e40 e933 3535 380f 1540
000002f0: 1cd3 86e8 3df8 1640 a1ae 1ed6 0e9b 1540
00000300: 2b9f 0f8e 6314 1740 f98f f29e d67c 1840
00000310: 3388 b85e 390e 1a40 8b65 0967 fda3 1940
00000320: f4f6 678f 52e8 1c40 2085 8088 5b05 2140
00000330: 05cb 4ec1 c5fa 1d40 cc57 edae 3e34 2140
00000340: 0b29 0910 b601 2040 f50c f251 4658 1e40
00000350: c0a5 457a 486e 2140 07cc cc8d 8856 2040
00000360: caaa 406a cfe3 2140 cb42 edbb 1516 2040
00000370: 1953 48da 15db 2040 e453 482f ba21 2040
00000380: 1ec1 50be b0ee 1c40 7b2e f70c ea4c 1d40
00000390: 22cc 99b6 4674 1b40 3a9c 33fd 8c02 1c40
000003a0: 91eb 9959 7ee8 1740 a9f2 ba28 43a1 1d40
000003b0: 7714 4591 e3d0 1940 5f01 ded5 f2f1 1e40
000003c0: fe49 408e a790 1c40 b7a2 112d 0894 1c40
000003d0: 6495 f481 785d 2040 1e26 6605 d4ef 1e40
000003e0: 31d9 c9e7 bafd 1840 ad85 9401 547f 1540
000003f0: d92d eab2 b37c 1840 d596 ba23 a7fa 1c40
00000400: a643 b9c2 8b0f 1840 73b7 2bc9 df71 1540
00000410: 39fb bc7b 3946 1040 fa77 6727 83f9 0740
00000420: c367 dd51 a6d3 0840 a367 f561 3fdd fa3f
00000430: fd92 c120 976d 0d40 bf13 7c39 f8b8 0640
00000440: 2d50 a199 09b6 fb3f fabc 17a4 2894 0940
00000450: 0697 19ab d51b b53f 6529 ea73 5841 e03f
00000460: 6dc8 cc13 295d c8bf 6c84 dc15 7087 e13f
00000470: 4736 8f02 c17d eabf 551a f26c 6186 f1bf
00000480: a199 3b36 1b78 02c0 9266 53d6 140e f7bf
00000490: 1431 b1f2 f31d 01c0 0fb9 4b3e 8475 0ec0
000004a0: 3137 03c6 2764 ffbf 21f9 2e0f 4dfc 07c0
000004b0: 30ed f004 ee99 0cc0 0b89 c4ee 15b8 fdbf
000004c0: 55cd fbcb 357c 0dc0 b008 be42 58b7 09c0
000004d0: 287b 21ca 6343 19c0 31c0 4ab2 d48b 14c0
000004e0: cf66 4429 6ff1 16c0 ba1a b98c 22b6 12c0
000004f0: 1e03 b0ee aa7a 16c0 5f33 1598 43f5 15c0
00000500: d2c1 c955 adbf 16c0 9771 27a0 ccf6 1ac0
00000510: 5178 b387 e685 16c0 7d1f a730 3654 1ac0
00000520: 2ef3 c7ee 83ec 19c0 a171 fa52 9574 11c0
00000530: ef26 e778 06de 1dc0 7c0b 4b20 87a3 18c0
00000540: 9ef0 22d7 ed83 15c0 042c 9430 27f8 1dc0
00000550: f2b4 5456 0b97 10c0 a75c 078c a5ce 13c0
00000560: 6eb7 534e a745 1cc0 647a da6f 6953 11c0
00000570: 879b de27 2535 1ac0 887f 16bd 03e5 19c0
00000580: e391 b37d 2a49 12c0 3184 9fbb 1075 17c0
00000590: 6d48 0951 9160 1ac0 5682 9dd0 403f 17c0
000005a0: 7e0b c34a ba97 09c0 5fe6 e0ed 949f 14c0
000005b0: 1eb7 2770 4beb 0dc0 bef7 0f6d 08ca 15c0
000005c0: 2523 52eb 16ea 11c0 d439 988e 4624 12c0
000005d0: 8ec7 cfd6 da6b 1bc0 59ec cfce 2b3a 17c0
000005e0: e754 0251 eb00 1ac0 3692 a83f c593 22c0
000005f0: 0cad b180 2dc8 00c0 68ff ac07 35e4 2540
00000600: 83b5 788c c6d6 2c40 d6c0 993d 4259 3040
00000610: caff 1ba2 644d 3340 447c 3a6a 36f6 2d40
00000620: 74c2 74e4 81ee 2c40 c4e5 3536 9911 2440
00000630: ec5d 307a ecef 1b40 058f 73aa 2112 33c0

marginal_sde.orthogonal.b f8 [1]
-4.446624779046477
00000000: f459 8e01 58c9 11c0

marginal_sde.orthogonal.tau f8 [200, 1]
-1.0 -0.8894472361809045 -0.778894472361809 -0.6683417085427136 -0.5577889447236181 -0.44723618090452255 -0.3366834170854271 -0.2261306532663316
-0.11557788944723613 -0.005025125628140642 0.10552763819095484 0.21608040201005033 0.3266331658291458 0.4371859296482413 0.5477386934673367 0.6582914572864322
0.7688442211055277 0.8793969849246233 0.9899497487437188 1.1005025125628143 1.2110552763819098 1.321608040201005 1.4321608040201006 1.542713567839196
1.6532663316582916 1.7638190954773871 1.8743718592964826 1.9849246231155782 2.0954773869346734 2.206030150753769 2.3165829145728645 2.42713567839196
2.5376884422110555 2.648241206030151 2.7587939698492465 2.869346733668342 2.9798994974874375 3.090452261306533 3.2010050251256286 3.311557788944724
3.4221105527638196 3.532663316582915 3.64321608040201 3.753768844221106 3.864321608040201 3.974874371859297 4.085427135678392 4.1959798994974875
4.306532663316583 4.417085427135679 4.527638190954774 4.63819095477387 4.748743718592965 4.859296482412061 4.969849246231156 5.080402010050252
5.190954773869347 5.301507537688442 5.412060301507538 5.522613065326634 5.633165829145729 5.743718592964824 5.85427135678392 5.964824120603016
6.075376884422111 6.185929648241206 6.296482412060302 6.407035175879398 6.517587939698493 6.628140703517588 6.738693467336684 6.84924623115578
6.959798994974875 7.07035175879397 7.180904522613066 7.291457286432161 7.402010050251257 7.512562814070352 7.623115577889448 7.733668341708543
7.844221105527639 7.9547738693467345 8.06532663316583 8.175879396984925 8.28643216080402 8.396984924623116 8.507537688442211 8.618090452261308
8.728643216080403 8.839195979899499 8.949748743718594 9.06030150753769 9.170854271356784 9.28140703517588 9.391959798994975 9.50251256281407
9.613065326633166 9.723618090452263 9.834170854271358 9.944723618090453 10.055276381909547 10.165829145728642 10.276381909547737 10.386934673366834
10.49748743718593 10.608040201005025 10.71859296482412 10.829145728643216 10.93969849246231 11.050251256281406 11.160804020100501 11.271356783919597
11.381909547738692 11.492462311557789 11.603015075376884 11.71356783919598 11.824120603015075 11.93467336683417 12.045226130653266 12.15577889447236
12.266331658291456 12.376884422110551 12.487437185929648 12.597989949748744 12.708542713567839 12.819095477386934 12.92964824120603 13.040201005025125
13.15075376884422 13.261306532663315 13.37185929648241 13.482412060301508 13.592964824120603 13.703517587939698 13.814070351758794 13.924623115577889
14.035175879396984 14.14572864321608 14.256281407035175 14.36683417085427 14.477386934673367 14.587939698492463 14.698492462311558 14.809045226130653
14.919597989949748 15.030150753768844 15.140703517587939 15.251256281407034 15.36180904522613 15.472361809045227 15.582914572864322 15.693467336683417
15.804020100502512 15.914572864321608 16.025125628140703 16.1356783919598 16.246231155778894 16.35678391959799 16.467336683417084 16.57788944723618
16.688442211055275 16.798994974874372 16.909547738693465 17.020100502512562 17.13065326633166 17.241206030150753 17.35175879396985 17.462311557788944
17.57286432160804 17.683417085427134 17.79396984924623 17.904522613065325 18.015075376884422 18.12562814070352 18.236180904522612 18.34673366834171
18.457286432160803 18.5678391959799 18.678391959798994 18.78894472361809 18.899497487437184 19.01005025125628 19.12060301507538 19.231155778894472
19.34170854271357 19.452261306532662 19.56281407035176 19.673366834170853 19.78391959798995 19.894472361809044 20.00502512562814 20.115577889447238
20.22613065326633 20.33668341708543 20.44723618090452 20.55778894472362 20.668341708542712 20.77889447236181 20.889447236180903 21.0
00000000: 0000 0000 0000 f0bf 2e44 dd0c 5a76 ecbf
00000010: 5c88 ba19 b4ec e8bf 8bcc 9726 0e63 e5bf
00000020: b910 7533 68d9 e1bf cea9 a480 849f dcbf
00000030: 2b32 5f9a 388c d5bf 0f75 3368 d9f1 ccbf
00000040: 900b 5137 8396 bdbf 20d0 b2e3 3995 74bf
00000050: 8cb1 dafa db03 bb3f 0d48 f8c9 85a8 cb3f
00000060: aa9b 41cb 8ee7 d43f 4e13 87b1 dafa db3f
00000070: 7845 e64b 1387 e13f 4a01 093f b910 e53f
00000080: 1cbd 2b32 5f9a e83f ee78 4e25 0524 ec3f
00000090: c034 7118 abad ef3f 49f8 c985 a89b f13f
000000a0: 3256 5b7f 7b60 f33f 1ab4 ec78 4e25 f53f
000000b0: 0312 7e72 21ea f63f ec6f 0f6c f4ae f83f
000000c0: d5cd a065 c773 fa3f be2b 325f 9a38 fc3f
000000d0: a789 c358 6dfd fd3f 90e7 5452 40c2 ff3f
000000e0: bc22 f3a5 89c3 0040 b1d1 bb22 f3a5 0140
000000f0: a580 849f 5c88 0240 9a2f 4d1c c66a 0340
00000100: 8ede 1599 2f4d 0440 828d de15 992f 0540
00000110: 773c a792 0212 0640 6beb 6f0f 6cf4 0640
00000120: 609a 388c d5d6 0740 5449 0109 3fb9 0840
00000130: 49f8 c985 a89b 0940 3da7 9202 127e 0a40
00000140: 3256 5b7f 7b60 0b40 2605 24fc e442 0c40
00000150: 1ab4 ec78 4e25 0d40 0f63 b5f5 b707 0e40
00000160: 0312 7e72 21ea 0e40 f8c0 46ef 8acc 0f40
00000170: f6b7 0736 7a57 1040 700f 6cf4 aec8 1040
00000180: ea66 d0b2 e339 1140 65be 3471 18ab 1140
00000190: df15 992f 4d1c 1240 596d fded 818d 1240
000001a0: d3c4 61ac b6fe 1240 4e1c c66a eb6f 1340
000001b0: c873 2a29 20e1 1340 42cb 8ee7 5452 1440
000001c0: bc22 f3a5 89c3 1440 367a 5764 be34 1540
000001d0: b1d1 bb22 f3a5 1540 2b29 20e1 2717 1640
000001e0: a580 849f 5c88 1640 1fd8 e85d 91f9 1640
000001f0: 9a2f 4d1c c66a 1740 1487 b1da fadb 1740
00000200: 8ede 1599 2f4d 1840 0836 7a57 64be 1840
00000210: 828d de15 992f 1940 fde4 42d4 cda0 1940
00000220: 773c a792 0212 1a40 f193 0b51 3783 1a40
00000230: 6beb 6f0f 6cf4 1a40 e642 d4cd a065 1b40
00000240: 609a 388c d5d6 1b40 daf1 9c4a 0a48 1c40
00000250: 5449 0109 3fb9 1c40 cea0 65c7 732a 1d40
00000260: 49f8 c985 a89b 1d40 c34f 2e44 dd0c 1e40
00000270: 3da7 9202 127e 1e40 b7fe f6c0 46ef 1e40
00000280: 3256 5b7f 7b60 1f40 acad bf3d b0d1 1f40
00000290: 9302 127e 7221 2040 502e 44dd 0c5a 2040
000002a0: 0d5a 763c a792 2040 ca85 a89b 41cb 2040
000002b0: 87b1 dafa db03 2140 45dd 0c5a 763c 2140
000002c0: 0209 3fb9 1075 2140 bf34 7118 abad 2140
000002d0: 7c60 a377 45e6 2140 398c d5d6 df1e 2240
000002e0: f6b7 0736 7a57 2240 b3e3 3995 1490 2240
000002f0: 700f 6cf4 aec8 2240 2d3b 9e53 4901 2340
00000300: ea66 d0b2 e339 2340 a892 0212 7e72 2340
00000310: 65be 3471 18ab 2340 22ea 66d0 b2e3 2340
00000320: de15 992f 4d1c 2440 9b41 cb8e e754 2440
00000330: 586d fded 818d 2440 1699 2f4d 1cc6 2440
00000340: d3c4 61ac b6fe 2440 90f0 930b 5137 2540
00000350: 4d1c c66a eb6f 2540 0a48 f8c9 85a8 2540
00000360: c773 2a29 20e1 2540 849f 5c88 ba19 2640
00000370: 41cb 8ee7 5452 2640 fef6 c046 ef8a 2640
00000380: bb22 f3a5 89c3 2640 794e 2505 24fc 2640
00000390: 367a 5764 be34 2740 f3a5 89c3 586d 2740
000003a0: b0d1 bb22 f3a5 2740 6dfd ed81 8dde 2740
000003b0: 2a29 20e1 2717 2840 e754 5240 c24f 2840
000003c0: a480 849f 5c88 2840 61ac b6fe f6c0 2840
000003d0: 1fd8 e85d 91f9 2840 dc03 1bbd 2b32 2940
000003e0: 992f 4d1c c66a 2940 565b 7f7b 60a3 2940
000003f0: 1387 b1da fadb 2940 d0b2 e339 9514 2a40
00000400: 8dde 1599 2f4d 2a40 4a0a 48f8 c985 2a40
00000410: 0736 7a57 64be 2a40 c561 acb6 fef6 2a40
00000420: 828d de15 992f 2b40 3fb9 1075 3368 2b40
00000430: fce4 42d4 cda0 2b40 b910 7533 68d9 2b40
00000440: 763c a792 0212 2c40 3368 d9f1 9c4a 2c40
00000450: f093 0b51 3783 2c40 adbf 3db0 d1bb 2c40
00000460: 6beb 6f0f 6cf4 2c40 2817 a26e 062d 2d40
00000470: e542 d4cd a065 2d40 a26e 062d 3b9e 2d40
00000480: 5f9a 388c d5d6 2d40 1cc6 6aeb 6f0f 2e40
00000490: d9f1 9c4a 0a48 2e40 961d cfa9 a480 2e40
000004a0: 5349 0109 3fb9 2e40 1175 3368 d9f1 2e40
000004b0: cea0 65c7 732a 2f40 8bcc 9726 0e63 2f40
000004c0: 48f8 c985 a89b 2f40 0524 fce4 42d4 2f40
000004d0: e127 17a2 6e06 3040 c03d b0d1 bb22 3040
000004e0: 9e53 4901 093f 3040 7d69 e230 565b 3040
000004f0: 5b7f 7b60 a377 3040 3a95 1490 f093 3040
00000500: 18ab adbf 3db0 3040 f7c0 46ef 8acc 3040
00000510: d5d6 df1e d8e8 3040 b4ec 784e 2505 3140
00000520: 9302 127e 7221 3140 7118 abad bf3d 3140
00000530: 502e 44dd 0c5a 3140 2e44 dd0c 5a76 3140
00000540: 0d5a 763c a792 3140 eb6f 0f6c f4ae 3140
00000550: ca85 a89b 41cb 3140 a89b 41cb 8ee7 3140
00000560: 87b1 dafa db03 3240 66c7 732a 2920 3240
00000570: 44dd 0c5a 763c 3240 23f3 a589 c358 3240
00000580: 0109 3fb9 1075 3240 e01e d8e8 5d91 3240
00000590: be34 7118 abad 3240 9d4a 0a48 f8c9 3240
000005a0: 7b60 a377 45e6 3240 5a76 3ca7 9202 3340
000005b0: 398c d5d6 df1e 3340 17a2 6e06 2d3b 3340
000005c0: f6b7 0736 7a57 3340 d4cd a065 c773 3340
000005d0: b3e3 3995 1490 3340 91f9 d2c4 61ac 3340
000005e0: 700f 6cf4 aec8 3340 4e25 0524 fce4 3340
000005f0: 2d3b 9e53 4901 3440 0c51 3783 961d 3440
00000600: ea66 d0b2 e339 3440 c97c 69e2 3056 3440
00000610: a792 0212 7e72 3440 86a8 9b41 cb8e 3440
00000620: 64be 3471 18ab 3440 43d4 cda0 65c7 3440
00000630: 21ea 66d0 b2e3 3440 0000 0000 0000 3540

marginal_sde.orthogonal.eps f8 []
1e-06
00000000: 8ded b5a0 f7c6 b03e

marginal_sde.orthogonal.K.rawlen f8 [1]
-0.2495855296496237
00000000: 4932 b32b 6bf2 cfbf

marginal_sde.orthogonal.K.rawsigf f8 [1]
16.564356390717265
00000000: 546b 11a9 7990 3040

marginal_sde.orthogonal.K.input_warping.rawalpha f8 [1]
-4.004742526786435
00000000: e6ca 9539 db04 10c0

marginal_sde.orthogonal.K.input_warping.rawbeta f8 [1]
-5.660054674413747
00000000: 44b7 605f e5a3 16c0

marginal_sde.orthogonal.K.input_warping.t0 f8 []
-1.000001
00000000: 0b7a 6f0c 0100 f0bf

marginal_sde.orthogonal.K.input_warping.tf f8 []
21.000001
00000000: a1f7 c610 0000 3540

marginal_sde.orthogonal.K.input_warping.eps f8 []
1e-06
00000000: 8ded b5a0 f7c6 b03e
